results/metrics/best_model.pt (torch, 373602 bytes, 29 tensors)

conv1.bias f4 [128]
0	0xbc537b99	-0.012907886
1	0x3b9f6be9	0.004865159
2	0x3c4ac5bb	0.012376244
3	0xb8086e52	-3.252767e-05
4	0x3d2577f5	0.040397603
5	0xbc28570e	-0.010274662
6	0xbdac7826	-0.08421354
7	0x3cb6a9ce	0.022297766
8	0x3c1fb2ad	0.0097471895
9	0xbc01c937	-0.0079215085
10	0xbd6cd63f	-0.05782151
11	0xbd74a39b	-0.05972634
12	0x3cd56f10	0.026053935
13	0xbc269ce6	-0.010169243
14	0xbd3b3383	-0.045703422
15	0xbd917c83	-0.07103827
16	0xbd190fdd	-0.037368644
17	0xbb12dd35	-0.0022409682
18	0x3b349283	0.0027553148
19	0xbbfa3954	-0.0076362286
20	0x3cbc057e	0.022951838
21	0xbba7cdaa	-0.0051209526
22	0x3b60edae	0.0034321356
23	0xb811924c	-3.4706944e-05
24	0x3c804387	0.0156572
25	0x3c4fa665	0.012673949
26	0xbb2a3c32	-0.002597582
27	0x3c721f7a	0.014778012
28	0x3c95804f	0.018249659
29	0x3c7f7956	0.015592894
30	0xbc93ea33	-0.01805601
31	0xbca00c38	-0.019537076
32	0x3bc6cbd4	0.0060667787
33	0x3c0ec27d	0.008713362
34	0x3c1554e4	0.009114478
35	0x3c6601a5	0.014038478
36	0x3bf92a93	0.007603952
37	0x3b88d6ec	0.0041760113
38	0x3ba4e537	0.0050322074
39	0x3c1acdf9	0.009448522
40	0xbb02ef7d	-0.0019979172
41	0x3c7168a0	0.014734417
42	0x3aadca59	0.0013259157
43	0x3cbabf13	0.02279619
44	0x3a035b4a	0.00050108565
45	0xbbd48c26	-0.0064864336
46	0xbd24db4e	-0.040248208
47	0x3c62ef08	0.013850935
48	0xbd1fd3ff	-0.039020535
49	0x3c7df060	0.015499204
50	0x3b15e006	0.0022869124
51	0xbc1b6950	-0.009485558
52	0x3c5dbf2d	0.013534349
53	0x3c0e2e49	0.008678027
54	0x3c157ee3	0.00912449
55	0x3c05158f	0.008122816
56	0x3c180b3d	0.009280023
57	0x3cbe282d	0.023212517
58	0x3cee2f9c	0.029075436
59	0x3c3a7d89	0.011382469
60	0x3c91cd4c	0.017798088
61	0x3c38043a	0.011231476
62	0x3d163947	0.036675718
63	0xbd9dc416	-0.07703416
64	0x3c8cc98c	0.017185949
65	0x3cc00c28	0.023443297
66	0xba9ab6a7	-0.0011803702
67	0xbcbf97e8	-0.023387864
68	0x3c51d48b	0.012807022
69	0x3bb2cfe6	0.0054569123
70	0x3d1b0a4c	0.037851617
71	0xbd784d16	-0.06062039
72	0xb7867e34	-1.6032813e-05
73	0xbcef4292	-0.029206548
74	0xb804098c	-3.1480144e-05
75	0xbad523f9	-0.0016261331
76	0xbc929f05	-0.017898092
77	0xbcc20f58	-0.023688957
78	0x3ca22424	0.019792624
79	0x3c27f28d	0.0102507
80	0x3cdbfba3	0.026853388
81	0x3c013493	0.00788607
82	0x3c2a2fab	0.0103873415
83	0x3aebb536	0.0017983082
84	0xbd15a827	-0.036537316
85	0x3ccc9583	0.024973636
86	0x3b775159	0.0037737696
87	0x3cc4a6b8	0.024005279
88	0x3c916455	0.017748037
89	0xbce97182	-0.028496508
90	0x3c11157a	0.008855218
91	0x3c28c31f	0.010300427
92	0xbd02ff05	-0.031981487
93	0xbb28548a	-0.0025685155
94	0x3c245ec9	0.010032364
95	0xba0c4158	-0.0005350313
96	0xbcf2e675	-0.029650906
97	0xbacdc3d4	-0.001569862
98	0xbc3598cc	-0.011083793
99	0xbc301d91	-0.010749237
100	0x3b02ada2	0.001993992
101	0x3c6e76f6	0.01455473
102	0x3c0b33ee	0.008496268
103	0x3ccb3176	0.024803858
104	0xbbeb6dd3	-0.007184723
105	0xbcb7d393	-0.022439754
106	0xbd322b00	-0.04349804
107	0x3c368c97	0.011141918
108	0xbbe7ca34	-0.007073665
109	0xba8aa2b8	-0.0010577058
110	0x3d0b95ac	0.034078285
111	0xbbb49f9a	-0.00551219
112	0x3d0573ad	0.03258102
113	0xbca0b787	-0.019618763
114	0xb7b8d712	-2.203466e-05
115	0x3c882f92	0.016624246
116	0xbd5920c8	-0.05300978
117	0xbc8b29cd	-0.016987706
118	0x3bc7924d	0.0060904385
119	0x3b2718bf	0.0025496928
120	0xbc0eb010	-0.008708969
121	0xbc7a3a93	-0.015272754
122	0x3c30b87a	0.01078617
123	0xbc316c0c	-0.010828983
124	0xbb11f767	-0.0022272707
125	0x3cfaa10b	0.03059437
126	0x3c4f13a7	0.012638963
127	0x3ba2170e	0.004946596

conv1.lin.weight f4 [128, 53]
0	0x3d01a360	0.031649947
1	0x3c311cff	0.010810136
2	0x3d896847	0.067093424
3	0xbe01ebec	-0.12687653
4	0xbc493023	-0.012279543
5	0x3d88e909	0.06685073
6	0x3d35fbce	0.044429593
7	0xbd971eaf	-0.07378899
8	0x3c9b10d5	0.018928925
9	0xbd4bc40c	-0.04974751
10	0x3b8c20a2	0.004276351
11	0xbdf45725	-0.11930684
12	0xbdb9c396	-0.09070508
13	0xbca4e3fd	-0.020128245
14	0x3c67eb30	0.014155194
15	0xbc4277c9	-0.011869379
16	0x3c980604	0.018557556
17	0xbd1a86da	-0.03772626
18	0xbd5c9308	-0.053851157
19	0xbe814333	-0.2524658
20	0xbd984355	-0.074347176
21	0xbcd9be18	-0.026579902
22	0x3d5f7ea9	0.054564152
23	0x3d295c7e	0.041347973
24	0x3db4cbf2	0.08827962
25	0x3e0ef7a9	0.13961662
26	0x3d56a003	0.052398693
27	0xbd9f3739	-0.07774205
28	0x3c479d17	0.012183449
29	0xbe28a0c6	-0.1646758
30	0xbd3a3669	-0.045462046
31	0x3e07defa	0.13268653
32	0x3dc30208	0.09521872
33	0xbd88bd7e	-0.06676768
34	0x3d01906a	0.031631865
35	0xbdc1661e	-0.094433054
36	0x3d002f0c	0.031294867
37	0xbd9946ed	-0.07484231
38	0xbdd69c42	-0.104790226
39	0xbdf1758c	-0.117899984
40	0xbe1ed60d	-0.15511341
41	0xbe10ff1d	-0.14159818
42	0x3d76b11e	0.060227506
43	0x3d6bb2a6	0.05754342
44	0x3cc7336c	0.024316512
45	0x3cd9b065	0.02657337
46	0xbbbfccc6	-0.0058532683
47	0x3c546f91	0.012966053
48	0x3daacc9c	0.083398074
49	0x3df7d8ef	0.12101924
50	0x3c013a07	0.00788737
51	0x3d95666e	0.072949275
52	0xbbf92f2c	-0.0076045003
53	0x3dab1e25	0.08355359
54	0x3cf6d0a1	0.030128779
55	0xbd4f3815	-0.050590593
56	0xbdb96a2d	-0.090534545
57	0x3b2a447e	0.0025980766
58	0x3d04d06a	0.03242532
59	0x3d8683bc	0.06568095
60	0x3d2485f2	0.040166803
61	0xbcf55978	-0.029949889
62	0x3c4837d3	0.012220341
63	0x3db5df37	0.088804655
64	0x3dc92c1e	0.09822868
65	0x3d72e8b4	0.059303954
66	0x3cf7fa2d	0.03027066
67	0x3d294ee2	0.041334994
68	0x3d75bbd3	0.059993576
69	0x3db5035c	0.088385314
70	0x3dda7abd	0.10667942
71	0x3e2248cc	0.15848082
72	0xbdd3b7fb	-0.10337826
73	0xbe9c353d	-0.30509368
74	0xbf0436f9	-0.5164638
75	0xbeddff3a	-0.43358785
76	0xbe97c7df	-0.29644677
77	0xbb1a1461	-0.0023510682
78	0x3e3883f0	0.1801908
79	0x3e0cbd57	0.13744102
80	0x3e2964df	0.16542386
81	0x3d9dd72e	0.07707058
82	0x3d69a1e6	0.057039164
83	0x3dd24229	0.10266525
84	0x3d4c4c2a	0.049877323
85	0x3d8b29d7	0.0679509
86	0x3da4c450	0.08045256
87	0x3db1f949	0.086901255
88	0xbd438306	-0.047732376
89	0xbd6c065b	-0.05762325
90	0xbce7eb0c	-0.028310321
91	0x3d13f92a	0.036126293
92	0x3d80568d	0.06266508
93	0x3d4b86be	0.049689047
94	0x3b2bf9ea	0.002624149
95	0xbd199f5c	-0.037505493
96	0xbd7d6a67	-0.06186905
97	0xbd985cca	-0.07439573
98	0xbdc39ec1	-0.09551764
99	0xbaf93ccc	-0.0019015311
100	0xbcf8748a	-0.030329008
101	0xbd8b5744	-0.06803754
102	0x3ce8efd7	0.028434677
103	0x3c50df44	0.012748543
104	0xbc1ab900	-0.0094435215
105	0x3cd1d62d	0.025614822
106	0x3e103d65	0.1408592
107	0xbee09884	-0.4386636
108	0xbf2a4dcb	-0.6652495
109	0xbf000545	-0.5000804
110	0xbe98b765	-0.2982742
111	0x3d8a66d6	0.06757896
112	0x3e1a6a89	0.15079702
113	0x3df06443	0.117378734
114	0x3dd051e7	0.10171872
115	0x3d6ef640	0.05834031
116	0x3d707623	0.058706414
117	0xbba204c6	-0.0049444167
118	0xbcd9d3d5	-0.026590267
119	0xbd828d9a	-0.063746646
120	0x3cb9a8f2	0.022663567
121	0x3dc95014	0.09829727
122	0x3d0fe2fc	0.03512858
123	0x3cfa35a8	0.030543163
124	0xbcc296e3	-0.023753589
125	0x3ce5881a	0.028019
126	0xbd748a16	-0.059702
127	0xbd5eb7e1	-0.05437458
128	0xbd575433	-0.052570533
129	0x3b40b824	0.0029406631
130	0xbdd588cc	-0.104264826
131	0xbd8bfc65	-0.0683525
132	0xbc81f45a	-0.015863586
133	0xbd5bd403	-0.053668987
134	0xbdecdc18	-0.11565417
135	0xbdb13b47	-0.086538844
136	0xbd91f80e	-0.07127391
137	0xbcf5f586	-0.030024301
138	0xbd2ffa60	-0.042963386
139	0xbd6c81a1	-0.05774081
140	0xbc40e78e	-0.011773957
141	0xbd31c6b2	-0.04340238
142	0x3cb7cd8b	0.022436878
143	0x3d23a518	0.039952368
144	0xbd12e865	-0.03586616
145	0xbd42ad6d	-0.047528673
146	0x3cff13b8	0.031137332
147	0x3d0dc509	0.034611735
148	0x3dc7faaf	0.09764611
149	0x3d875e3a	0.06609769
150	0x3d781f43	0.06057669
151	0x3c231e7a	0.009955997
152	0xbbcf4057	-0.0063248086
153	0x3ca16891	0.019703181
154	0x3c9c795d	0.01910084
155	0x3d5e2456	0.05423387
156	0x3d1ba99d	0.038003553
157	0xbbc9dde7	-0.006160486
158	0xbcfa4486	-0.030550253
159	0x3d319f63	0.043364894
160	0xbc581337	-0.013188175
161	0xbdd4715f	-0.10373186
162	0xbd4135db	-0.0471705
163	0x3d8c5835	0.06852762
164	0x3e43400f	0.19067405
165	0x3e727b6f	0.23679899
166	0xbda43c2e	-0.08019291
167	0xbe7f0378	-0.24903667
168	0xbe9938f1	-0.29926255
169	0xbe9ac30d	-0.30226937
170	0xbdbc334a	-0.0918947
171	0x3e377216	0.17914614
172	0x3e0929f4	0.1339491
173	0x3d9f84ae	0.077889785
174	0xbd519238	-0.051164836
175	0xbdd042dc	-0.101690024
176	0xbdf6543c	-0.12027785
177	0xbd81b4d8	-0.06333321
178	0x3d92bc5b	0.07164832
179	0x3d27834b	0.040896695
180	0x3d392985	0.04520561
181	0x3cfe4141	0.031036975
182	0xbb79e294	-0.0038129436
183	0x3d94f537	0.072733335
184	0x3c1fc3dd	0.009751287
185	0xbda64c9c	-0.08120081
186	0xbdd708c6	-0.1049972
187	0xbe0b53f8	-0.1360625
188	0xbde9e2aa	-0.11420186
189	0xbdf1d593	-0.11808314
190	0xbd8123df	-0.0630567
191	0xbc4f181d	-0.012640026
192	0x3d67a7e3	0.056556594
193	0x3d5fc2b0	0.054629028
194	0x3dbf6001	0.09344483
195	0x3d904f01	0.07046319
196	0x3dacbf9b	0.08434983
197	0x3d7f1fd8	0.062286228
198	0xbc7debd2	-0.0154981185
199	0xbd30e881	-0.043190483
200	0xbd5271c4	-0.051378027
201	0xbda43b7d	-0.08019159
202	0xbd3780e5	-0.044800658
203	0x3d02c24e	0.031923585
204	0xbb8ef4e1	-0.004362688
205	0xbc56da45	-0.013113563
206	0xbc08b1c5	-0.008343165
207	0xbced1885	-0.028942356
208	0x3d6c2344	0.05765082
209	0x3c058657	0.008149705
210	0xbc2b5d23	-0.010459217
211	0xbd9ff3aa	-0.07810147
212	0x3dbd896e	0.09254728
213	0xbf0b4b0e	-0.544114
214	0xbf0762a8	-0.5288491
215	0xbf014896	-0.5050138
216	0xbf0746e8	-0.5284257
217	0xbf069854	-0.52576184
218	0xbf0a0bea	-0.5392443
219	0xbf047dd6	-0.5175451
220	0xbefe26b9	-0.49638918
221	0xbec52181	-0.38502124
222	0xbedb1c10	-0.42794847
223	0xbe357a9d	-0.17722555
224	0x3afb0871	0.0019152296
225	0xbcfb494b	-0.030674597
226	0x3d3cbf31	0.04608077
227	0x3d47e015	0.048797686
228	0x3d383912	0.0449763
229	0x3d924869	0.071427174
230	0xbd4b625a	-0.049654342
231	0xba2b297c	-0.0006529314
232	0xbd4e03c5	-0.050296564
233	0xbc9f765d	-0.01946562
234	0xbd8d1b88	-0.06890017
235	0xbd0a0ada	-0.033701755
236	0xbce1e07f	-0.027572868
237	0xbdbf8eba	-0.09353395
238	0xbd6a8e44	-0.05726458
239	0xbd8b95ca	-0.06815679
240	0xbd95a4a0	-0.0730679
241	0xbd085b33	-0.0332901
242	0xbd2fba1e	-0.042902105
243	0xbd9b5123	-0.07583835
244	0xbd7997d0	-0.060935795
245	0xbd9ce893	-0.076615475
246	0xbdcd0cc4	-0.100122005
247	0xbdaf69b1	-0.08565081
248	0xbda8e945	-0.08247618
249	0xbce53234	-0.02797804
250	0xbd146cb2	-0.036236472
251	0xbd2eb939	-0.04265711
252	0x3ce99d9f	0.028517542
253	0xbc3ebcbd	-0.011641678
254	0xbcb53284	-0.022118814
255	0x3c9d3cca	0.019194026

conv2.bias f4 [128]
0	0x3c1848ca	0.009294698
1	0xb9a10076	-0.00030708656
2	0xb837a887	-4.3787553e-05
3	0xb72a0f49	-1.01363485e-05
4	0xbbd1b5af	-0.006399832
5	0x3bd596cf	0.006518222
6	0x3c6ec3a3	0.014573011
7	0xb95c38de	-0.0002100202
8	0xb7adee2e	-2.0734118e-05
9	0xbcda7b62	-0.026670162
10	0xbd240030	-0.04003924
11	0xb7beadc1	-2.2730675e-05
12	0xb7bdd0e8	-2.2627835e-05
13	0x3b8f0d54	0.0043656025
14	0xbb060cb9	-0.002045436
15	0xb7e0dc89	-2.6805576e-05
16	0x3bb1c660	0.0054252595
17	0x3bfe3b49	0.007758532
18	0xb7e348a2	-2.7094331e-05
19	0xbb55a35e	-0.0032598595
20	0xb7f4dc12	-2.9189545e-05
21	0x3c131efe	0.008979557
22	0xb85db856	-5.2862182e-05
23	0x3c0ef672	0.008725749
24	0xb7a5898f	-1.9733588e-05
25	0xba35a99a	-0.00069298747
26	0xb7cc449b	-2.4350642e-05
27	0xb942dc16	-0.0001858327
28	0x3c1ab0b2	0.0094415415
29	0xb7ddf535	-2.6459436e-05
30	0x3b1ed7fe	0.0024237628
31	0x3b8ee4dd	0.0043607787
32	0xb7d63f9c	-2.5540408e-05
33	0x3c527a51	0.012846545
34	0xbc245abe	-0.0100314
35	0xb82f97e0	-4.1864696e-05
36	0xb7e9634c	-2.7822003e-05
37	0xb7a9fc10	-2.0263746e-05
38	0x3c9adee2	0.018905107
39	0x3b84e581	0.0040556793
40	0xbbb0bafa	-0.005393383
41	0xb970f099	-0.00022977813
42	0xbbc25756	-0.0059308214
43	0x3bf937dd	0.0076055364
44	0xbba2b28d	-0.0049651326
45	0x3b7cd05f	0.0038576347
46	0xb78566cd	-1.5902706e-05
47	0x3bd5e866	0.006527948
48	0xb77ba3ba	-1.4998886e-05
49	0xb7ab56d0	-2.0425214e-05
50	0xb7d34363	-2.518454e-05
51	0x3bb8a817	0.0056352722
52	0x3b3f04f1	0.0029147232
53	0xbbad6115	-0.005291114
54	0xbc99c7c0	-0.018772006
55	0xb80d5ab9	-3.370151e-05
56	0xb7d697a2	-2.5581397e-05
57	0xb7dbed15	-2.6217234e-05
58	0xbab6a492	-0.0013934544
59	0xb77a274d	-1.4910312e-05
60	0xb7302c75	-1.0500768e-05
61	0xb786a103	-1.6049022e-05
62	0x3b9da349	0.004810725
63	0xba06217d	-0.00051166845
64	0xb7d922f0	-2.5884685e-05
65	0xb7ebdb81	-2.8116398e-05
66	0x3c87c89e	0.016575154
67	0x3bdaeed3	0.006681302
68	0xb9d30b2a	-0.00040253374
69	0xbd0a599d	-0.033776868
70	0xba90cb82	-0.0011046978
71	0xb7b6b2a5	-2.1779279e-05
72	0x3b8cb3f5	0.0042939135
73	0x3b6303b7	0.0034639665
74	0x3b2718f9	0.0025497063
75	0xb7b8e2e9	-2.2040173e-05
76	0x3b68e5a2	0.0035537262
77	0xbbf71924	-0.007540839
78	0xb79b26f3	-1.8495577e-05
79	0x3c0bd75c	0.008535232
80	0x3c0bb7ca	0.008527705
81	0xb7df17ef	-2.6594817e-05
82	0xb7c27731	-2.3182105e-05
83	0xb7caa239	-2.4155817e-05
84	0xb7c88cb4	-2.3907378e-05
85	0xb78ad878	-1.6551683e-05
86	0xbba2b0db	-0.0049649305
87	0x3b255ca5	0.0025232222
88	0x3bb026fa	0.00537574
89	0x3cc347e6	0.023837995
90	0x3c131d47	0.008979148
91	0xb79493c0	-1.7711776e-05
92	0x3be335ca	0.0069339024
93	0xb8380732	-4.387572e-05
94	0xb9a47b4e	-0.00031372387
95	0xb9895ec4	-0.00026201282
96	0x3c46696f	0.012110098
97	0xb7cf876b	-2.4739382e-05
98	0x3be8f0f0	0.0071088
99	0xbc0e4c8d	-0.008685243
100	0xb7b0b3f1	-2.1064627e-05
101	0xba81b1cb	-0.0009894905
102	0xb863aa4e	-5.4279626e-05
103	0xb790f9ff	-1.7282551e-05
104	0x3c0603e5	0.0081796395
105	0x3b36e5b6	0.0027907914
106	0xb79462a3	-1.7688906e-05
107	0xb89d5f0f	-7.5040494e-05
108	0xb87dae7e	-6.048241e-05
109	0xb7da2ae5	-2.60076e-05
110	0xb80f1129	-3.410984e-05
111	0x3c86850d	0.016420865
112	0xb89cc950	-7.476157e-05
113	0xb79540a5	-1.7792287e-05
114	0xbbd2f4fc	-0.006437896
115	0xb7a8b8e6	-2.011326e-05
116	0xb8096de6	-3.2765696e-05
117	0x3c14dddb	0.009086098
118	0x3ba224ea	0.004948248
119	0xb73cd0da	-1.12543e-05
120	0xbba1e2a8	-0.0049403496
121	0x39698728	0.00022270961
122	0xb8061433	-3.19669e-05
123	0xb80dcc8e	-3.3807526e-05
124	0xb811be98	-3.47482e-05
125	0xb7838fdc	-1.5683407e-05
126	0xb731e339	-1.06029265e-05
127	0xb883841a	-6.2711726e-05

conv2.lin.weight f4 [128, 128]
0	0xbf1a4416	-0.6026014
1	0x3d14e023	0.036346566
2	0x3cde6811	0.027149232
3	0xbcaad688	-0.02085425
4	0xbcafb64c	-0.02144923
5	0xbea18e55	-0.31553903
6	0xbe125f72	-0.14294222
7	0x3d52d5e8	0.05147353
8	0x3d37cd2b	0.044873398
9	0xbd9b6498	-0.07587546
10	0xbdca6bc7	-0.09883838
11	0x3d69767b	0.056997757
12	0x3cffd51e	0.031229552
13	0xbd8bdba7	-0.06829005
14	0xbe6c049f	-0.23048638
15	0xbe41618d	-0.18884869
16	0xbca3b211	-0.01998237
17	0x3dad6850	0.08467162
18	0xbd2ea4b2	-0.042637534
19	0xbe7c090d	-0.24612828
20	0xbd6b3eae	-0.057432823
21	0xbd10f5cd	-0.035390664
22	0x3b74a9a0	0.003733255
23	0xb7e3735b	-2.7114225e-05
24	0x3d3850c9	0.044998918
25	0xbf02b487	-0.5105671
26	0x3d353e0c	0.044248626
27	0x3c5f028f	0.01361145
28	0xbdd77748	-0.10520798
29	0x3d8dc2f3	0.06921949
30	0xbdec0219	-0.115238376
31	0xbd8f8586	-0.070078894
32	0xbc79f0f8	-0.015255205
33	0xbd0743bc	-0.03302358
34	0xbe0231d8	-0.12714326
35	0x3da32d45	0.07967619
36	0x3c003f41	0.007827581
37	0x3c8fa1d2	0.017533217
38	0x3bf55666	0.007487106
39	0x3c892536	0.016741376
40	0xbdfbc9f9	-0.122943826
41	0xbb654708	-0.0034984965
42	0x3d9287f3	0.071548365
43	0x3dba1252	0.090855256
44	0xbc8f72c9	-0.017510789
45	0x3ce7ab28	0.028279856
46	0xbd1587fd	-0.03650664
47	0x3da3bf6d	0.07995496
48	0xbcadfc2f	-0.021238415
49	0x3dbc8155	0.092043556
50	0x3b7871f8	0.0037909728
51	0xbddcce7b	-0.107815705
52	0xba26105d	-0.0006334836
53	0x3dae6c36	0.08516733
54	0xbd8a22ee	-0.067449436
55	0xbdd31c4c	-0.103081316
56	0x3cafe4c8	0.021471396
57	0x3d92b3dd	0.071632124
58	0x3d31ea2a	0.043436207
59	0x3d3fcf72	0.046828695
60	0x3ccb84a2	0.024843518
61	0x3cbee6fc	0.023303501
62	0x3d8ba6ab	0.06818899
63	0xbdcb8aef	-0.09938609
64	0xbf09bbf3	-0.5380241
65	0x3a144e42	0.0005657413
66	0xbf484dd1	-0.7824374
67	0xbdd79b13	-0.10527625
68	0x3de83591	0.11338342
69	0xbe3f107a	-0.18658629
70	0x3d0a2a82	0.033731945
71	0xbd8e1669	-0.06937868
72	0xb839fb71	-4.434161e-05
73	0xbd94401c	-0.072387904
74	0xb8171771	-3.6023037e-05
75	0xbbe15eae	-0.006877742
76	0xbcc79be9	-0.024366336
77	0xbd84880a	-0.0647126
78	0xbca30fc9	-0.019904988
79	0x3d2e6b17	0.042582598
80	0x3df63ef1	0.12023724
81	0x3c58024a	0.0131841395
82	0x3cf72b77	0.030172093
83	0x3b35fd40	0.0027769357
84	0xbdf5101e	-0.11965965
85	0x3d1c7080	0.038193226
86	0xbc41946d	-0.011815173
87	0x3cb3c6c0	0.021945357
88	0x3cec929c	0.028878503
89	0x3c68a203	0.014198783
90	0x3d8276d0	0.06370318
91	0x3e012365	0.12611158
92	0xbd9b7149	-0.07589967
93	0xbd924e3e	-0.0714383
94	0x3c966224	0.018357344
95	0xbd6cbcfe	-0.057797424
96	0xbd33f4fa	-0.0439348
97	0x3d8b00de	0.06787275
98	0x3d4c95bf	0.049947497
99	0xbda96f87	-0.08273225
100	0x3d9407ce	0.07228051
101	0xbecdc846	-0.4019186
102	0x3d5bdd29	0.05367771
103	0x3d1bb3e7	0.038013365
104	0xbe3174b8	-0.17329681
105	0xbdf5cd19	-0.1200201
106	0x3c3bdfb7	0.011466912
107	0xbee417de	-0.4454946
108	0x3c639847	0.013891286
109	0xbec9123c	-0.39271724
110	0x3d730701	0.05933285
111	0xbe9b1f1a	-0.30297166
112	0x3d00386d	0.03130381
113	0xbe2e3a7c	-0.17014498
114	0x3566904c	8.5891656e-07
115	0x3c363671	0.011121378
116	0x3ba49f3a	0.005023864
117	0xbca5ef29	-0.020255642
118	0x3bcb3782	0.0062016854
119	0x3cdaf195	0.026726523
120	0xb9c61a19	-0.00037784947
121	0xbe4548fa	-0.1926612
122	0xbda87271	-0.08224953
123	0x3be7beda	0.007072312
124	0x3d0b512f	0.03401297
125	0x3d6fd788	0.058555156
126	0xbba4cf3a	-0.005029586
127	0xbc801ff2	-0.015640233
128	0x3987018f	0.00025750368
129	0xba8fe172	-0.0010977222
130	0xbaa275de	-0.0012394746
131	0x39883097	0.00025976144
132	0xb96c1b71	-0.00022516937
133	0xb8feb3ad	-0.00012145131
134	0xb98df9ca	-0.00027079723
135	0xba69d840	-0.00089204684
136	0xbadb43b6	-0.0016728553
137	0x3959974c	0.00020751095
138	0xb9eda7c2	-0.00045329152
139	0x3a405dcd	0.0007338196
140	0xba653685	-0.0008743781
141	0xb9f948fc	-0.0004754736
142	0xba851ca3	-0.0010155629
143	0x3a438c0a	0.0007459527
144	0xb98f959d	-0.00027386556
145	0x392b8f9c	0.0001636133
146	0xba0041db	-0.0004892626
147	0xb8018bde	-3.0886258e-05
148	0xb8b64da6	-8.6928994e-05
149	0xba2e8a02	-0.0006658138
150	0x3976cf59	0.00023537631
151	0xb6e59535	-6.842102e-06
152	0xb9b41f9b	-0.00034355823
153	0xba1028a3	-0.00054992194
154	0xb9e1c9a1	-0.0004306557
155	0xba405596	-0.0007336972
156	0xb9f67166	-0.00047005265
157	0x398459c2	0.00025243877
158	0xb9f3f39b	-0.00046530072
159	0xba1209a7	-0.00055708963
160	0xb9439e97	-0.00018655728
161	0xba42fd0e	-0.0007438221
162	0xb8c123f3	-9.209653e-05
163	0xba4d7253	-0.0007837165
164	0xb9173f57	-0.00014424078
165	0xba66c5f2	-0.00088033
166	0x385f38a1	5.3220083e-05
167	0x380e4730	3.3921737e-05
168	0xb99b8455	-0.000296625
169	0xba3480f2	-0.00068856694
170	0xb987e836	-0.00025922217
171	0xb96d1003	-0.00022608046
172	0xba0cde8a	-0.0005373737
173	0xb9b71306	-0.00034918654
174	0x39b234b2	0.00033990067
175	0xba945cf3	-0.0011319205
176	0xba37bed8	-0.0007009334
177	0xbaa28322	-0.00123987
178	0xba62cf9b	-0.00086521514
179	0x389a356a	7.3532414e-05
180	0x397815d8	0.0002365926
181	0xba489aa8	-0.000765244
182	0xba4068dc	-0.0007339844
183	0xb9d7936a	-0.00041117828
184	0x39a79784	0.0003196561
185	0xba090e69	-0.00052282825
186	0xba719353	-0.00092153734
187	0xb9b3c2e8	-0.00034286757
188	0x365f963c	3.3317037e-06
189	0xb9f9cd66	-0.00047646015
190	0xba45f805	-0.00075519114
191	0xbac23800	-0.0014817715
192	0x39c35630	0.00037257513
193	0xb9d88866	-0.00041300355
194	0x3990cf38	0.0002762021
195	0xb994fee3	-0.00028418665
196	0xba0e3698	-0.0005425005
197	0xb9107b9c	-0.00013778958
198	0xba73f26c	-0.0009305838
199	0xb9f41efe	-0.00046562398
200	0xb7b65331	-2.173483e-05
201	0xb9b80747	-0.00035100637
202	0xb7f0e6cf	-2.8717708e-05
203	0x3a315c94	0.00067658094
204	0xb9abb830	-0.00032752892
205	0xb9b4b43a	-0.00034466555
206	0xb9d3abe7	-0.00040373133
207	0x391b1a2a	0.00014791699
208	0xba1583f3	-0.0005703561
209	0xba972466	-0.0011531233
210	0xb948fed5	-0.00019168419
211	0x39f7769a	0.00047199876
212	0xb98fa743	-0.00027399705
213	0xb93dff66	-0.00018119588
214	0x392fa520	0.00016750814
215	0xb9aa3dcd	-0.00032470972
216	0xb88d0967	-6.725155e-05
217	0xba2327d9	-0.00062238943
218	0xb87b22da	-5.987552e-05
219	0x384c0970	4.864618e-05
220	0xba466d88	-0.0007569422
221	0xba86748b	-0.0010258121
222	0xba1ae8e4	-0.0005909337
223	0xba06a7ce	-0.0005136699
224	0xba95c293	-0.0011425785
225	0x380dae34	3.377926e-05
226	0xba892ec7	-0.0010466211
227	0xba5c4086	-0.0008401949
228	0x39dde0fe	0.00042320037
229	0x39a658af	0.00031728062
230	0xb9b7b536	-0.00035039493
231	0xb93c3495	-0.00017948665
232	0xb87c3b8d	-6.0136943e-05
233	0x39b3f6f9	0.0003432555
234	0xb7c200fc	-2.312706e-05
235	0x39a5f2b1	0.00031652072
236	0xba2b2962	-0.0006529299
237	0xba2a30ed	-0.0006492276
238	0xba4f5424	-0.0007908961
239	0xba31e761	-0.00067864923
240	0xba2c0198	-0.0006561517
241	0x37da9f5b	2.606183e-05
242	0xb832b484	-4.2606625e-05
243	0xb9fde874	-0.00048429111
244	0x3914ba01	0.00014183672
245	0x39081fbc	0.00012981793
246	0xb94abda5	-0.0001933487
247	0xb9ef285c	-0.00045615702
248	0x39a5d638	0.00031630858
249	0x39b1e266	0.0003392875
250	0xbaa23649	-0.0012375797
251	0xb8b39e5c	-8.564882e-05
252	0xba2f864e	-0.0006695733
253	0xb87935e0	-5.94164e-05
254	0xb93838d9	-0.00017568785
255	0xba8c629b	-0.0010710539

conv3.bias f4 [128]
0	0xb73c1e22	-1.1212689e-05
1	0xb795b090	-1.7844402e-05
2	0xb7cdcf69	-2.4534487e-05
3	0xb809f180	-3.288826e-05
4	0x3ba32934	0.004979277
5	0x3c69e154	0.014274914
6	0x3c58d4eb	0.013234357
7	0xb81c8e13	-3.7325615e-05
8	0xb79482e2	-1.7703922e-05
9	0xb7a31fef	-1.9445984e-05
10	0x3ca5fedf	0.020263134
11	0x3c221fb9	0.009895259
12	0x3cad7e91	0.021178516
13	0x3bc8cdb7	0.0061280387
14	0xba311b23	-0.0006756058
15	0x3cb0dcff	0.021589754
16	0x3af37961	0.0018575602
17	0xb9f163c1	-0.00046041425
18	0x3c69b210	0.014263645
19	0x3b2181ca	0.002464401
20	0xbb481c40	-0.0030534416
21	0x3bd720f3	0.006565207
22	0xb7e11541	-2.6831987e-05
23	0x3c852fae	0.016258087
24	0xbb921dd8	-0.004459124
25	0xb742dc0e	-1.1614537e-05
26	0xba03aafc	-0.0005022732
27	0xb76d98ac	-1.41618475e-05
28	0xb7c0b21b	-2.297112e-05
29	0xb811909c	-3.4705372e-05
30	0xbb42fd12	-0.0029752892
31	0xbb2685e2	-0.002540939
32	0x3b678659	0.003532788
33	0xba0ff3a2	-0.0005491321
34	0xb734210f	-1.0736533e-05
35	0xbb823b71	-0.003974371
36	0xb79f36f4	-1.8979867e-05
37	0xb84ef927	-4.934627e-05
38	0x3c8721c2	0.01649559
39	0x3bff2dd6	0.0077874465
40	0x3b5bd0f9	0.0033541305
41	0xb77e765d	-1.5167138e-05
42	0xb71c2d08	-9.308809e-06
43	0x3bee3eab	0.007270654
44	0x3ba4750b	0.0050188354
45	0xb7fa78e1	-2.9858611e-05
46	0x3c88fd38	0.016722307
47	0xb658d088	-3.230789e-06
48	0xb871d0c9	-5.7653324e-05
49	0xb7f5de3c	-2.9309762e-05
50	0xb7ea77bf	-2.7950735e-05
51	0xb8e96378	-0.00011128833
52	0x3ba07efb	0.0048979498
53	0xb74794c1	-1.1895959e-05
54	0x3c11f332	0.00890808
55	0x3c714a27	0.014727152
56	0x3c9e70f5	0.019340971
57	0xb7f94c78	-2.9718722e-05
58	0xbb35da86	-0.0027748658
59	0x3c474e44	0.012164656
60	0x3b40fa63	0.0029446117
61	0xbac9faac	-0.0015409789
62	0x3b7103fb	0.0036776054
63	0xb79e5f49	-1.8879438e-05
64	0xb7353eff	-1.0803108e-05
65	0xb9dc96b8	-0.00042073964
66	0xb7c54189	-2.3514747e-05
67	0xb7a41bb0	-1.9563216e-05
68	0xb782b236	-1.5580194e-05
69	0xbc9b8691	-0.018985065
70	0xb83ba036	-4.4733482e-05
71	0xbbddcecf	-0.0067690383
72	0x3b860e6e	0.0040910756
73	0x3c1f191a	0.0097105745
74	0x3a38f0a8	0.00070549035
75	0xb7f74d4e	-2.9480692e-05
76	0x3c3bb41c	0.011456516
77	0xbc0dc7a9	-0.00865356
78	0xba0755ee	-0.0005162646
79	0xb8479fe5	-4.759421e-05
80	0xb7a20a0a	-1.931658e-05
81	0xb717c145	-9.0453e-06
82	0xb758ca05	-1.292164e-05
83	0x39bed9ca	0.0003640189
84	0x3b475354	0.0030414658
85	0xb74d67fa	-1.2243161e-05
86	0x3a914210	0.001108231
87	0xbc0e9d7b	-0.008704538
88	0xb7b2239c	-2.1235835e-05
89	0x3cc67c8a	0.024229307
90	0xb7cdcca4	-2.4533198e-05
91	0x3ca0fa9f	0.019650755
92	0x3b834500	0.004006028
93	0xb6e0eac0	-6.7030487e-06
94	0xb76650e2	-1.37279e-05
95	0xb7f01804	-2.8621413e-05
96	0x3c81d3fe	0.015848156
97	0xb8069ada	-3.2092306e-05
98	0x3b20d118	0.0024538692
99	0xbbf976a7	-0.0076130214
100	0xb8815044	-6.16615e-05
101	0x3a9bfc89	0.0011900823
102	0x3c4ea7f4	0.012613285
103	0x39b11b10	0.00033780234
104	0x3af8dabf	0.001898609
105	0xbbd55cd8	-0.006511312
106	0xb731ad8d	-1.059043e-05
107	0xb7895917	-1.6373158e-05
108	0xb7ae1faa	-2.0757161e-05
109	0x3c9f93bb	0.019479623
110	0xb7963761	-1.7907181e-05
111	0x3cb6a1f6	0.022294026
112	0xba298884	-0.0006467181
113	0x3b44dad4	0.0030037658
114	0xb7ff787c	-3.0454474e-05
115	0xb7ec9f03	-2.8207438e-05
116	0xb7ee7fab	-2.8431261e-05
117	0x3c330513	0.010926503
118	0x3c16d156	0.009205183
119	0xb8e7b30e	-0.0001104829
120	0xbc10f152	-0.008846598
121	0xb729348a	-1.0085418e-05
122	0xb7816c7c	-1.5428515e-05
123	0xb7ae8c4f	-2.0807753e-05
124	0xbb1841d1	-0.002323259
125	0xb79dfd2a	-1.8833747e-05
126	0xb78cdaa0	-1.6791106e-05
127	0x3a704358	0.00091653084

conv3.lin.weight f4 [128, 128]
0	0xb7184aa9	-9.077289e-06
1	0xb79a32c7	-1.8381876e-05
2	0xb80f6825	-3.419085e-05
3	0xb8216750	-3.848161e-05
4	0xb816866e	-3.5887984e-05
5	0xb85b0663	-5.2219617e-05
6	0x37ef7914	2.8547402e-05
7	0xb57a664e	-9.328113e-07
8	0xb5476e1f	-7.4293524e-07
9	0x3781237b	1.539452e-05
10	0x37483356	1.19328815e-05
11	0x372b04c6	1.0193506e-05
12	0x359854d8	1.1349575e-06
13	0xb8253837	-3.939142e-05
14	0xb74d20ad	-1.222656e-05
15	0xb7ce76d4	-2.4612447e-05
16	0x35c6c5c1	1.4809704e-06
17	0xb8159606	-3.566409e-05
18	0xb66ee330	-3.5597004e-06
19	0x37d9dd2d	2.5971409e-05
20	0x37248e6e	9.808324e-06
21	0x364927be	2.9974467e-06
22	0xb81dd727	-3.7632093e-05
23	0xb78d0ea8	-1.6815335e-05
24	0xb8587b84	-5.1613446e-05
25	0xb7f876f2	-2.9619292e-05
26	0xb7e1b913	-2.6908272e-05
27	0xb848b101	-4.7848564e-05
28	0xb7d3f73c	-2.5268288e-05
29	0x380280f2	3.1114505e-05
30	0xb8093a6b	-3.271775e-05
31	0xb720acde	-9.576992e-06
32	0xb7437b19	-1.1651567e-05
33	0xb7cdb071	-2.4520066e-05
34	0x371218c8	8.708048e-06
35	0x37f2a342	2.8924671e-05
36	0x371e5252	9.436701e-06
37	0xb7fbcde4	-3.0017407e-05
38	0x37472913	1.1870888e-05
39	0xb722e8f4	-9.710191e-06
40	0xb8223e5c	-3.8681887e-05
41	0x37cf9b90	2.4748762e-05
42	0x37baa818	2.2251203e-05
43	0x37847413	1.5789677e-05
44	0x3750f6b9	1.2455211e-05
45	0x36adbfbb	5.178122e-06
46	0xb79344c2	-1.7555783e-05
47	0xb6321739	-2.6537584e-06
48	0x37c77833	2.377862e-05
49	0xb850bcdc	-4.9766953e-05
50	0x3768a37b	1.3866341e-05
51	0x370f4efb	8.541853e-06
52	0xb82084e4	-3.8270737e-05
53	0xb874fbac	-5.840852e-05
54	0xb4e1c640	-4.2053762e-07
55	0x37669916	1.3744711e-05
56	0xb82f7c43	-4.183898e-05
57	0xb8155f3f	-3.5613073e-05
58	0xb8489c03	-4.7829013e-05
59	0xb78800ae	-1.621278e-05
60	0x37d91862	2.587977e-05
61	0x378b2df6	1.6591493e-05
62	0x33ad4795	8.068961e-08
63	0xb83d082e	-4.506873e-05
64	0xb8026163	-3.1085114e-05
65	0x37dd409f	2.6375345e-05
66	0x37b7a372	2.189141e-05
67	0xb79d63b9	-1.8762295e-05
68	0xb79b5565	-1.8517205e-05
69	0xb87a9705	-5.9745293e-05
70	0xb7c2140f	-2.3135943e-05
71	0xb783161b	-1.562671e-05
72	0xb71f9d85	-9.513814e-06
73	0xb864b74f	-5.4530155e-05
74	0x37aa2368	2.0282067e-05
75	0xb8442b3a	-4.67703e-05
76	0xb80111a4	-3.0772426e-05
77	0x3704177a	7.873279e-06
78	0xb757064e	-1.2816467e-05
79	0xb73de2b6	-1.1318063e-05
80	0x37e0c0a9	2.6792595e-05
81	0xb7f124cf	-2.874658e-05
82	0xb805a939	-3.1867272e-05
83	0x377d6ef8	1.5105812e-05
84	0xb771f968	-1.4422789e-05
85	0xb761ee93	-1.34665925e-05
86	0x372f7d3a	1.0459969e-05
87	0x36642e56	3.4001619e-06
88	0xb5407fbc	-7.171145e-07
89	0xb81f1ecd	-3.793724e-05
90	0xb6ba134b	-5.545478e-06
91	0xb7215cf4	-9.61799e-06
92	0xb84bfc30	-4.863384e-05
93	0x359c3d92	1.1640825e-06
94	0xb77c96e2	-1.5055501e-05
95	0xb813bb96	-3.5222234e-05
96	0xb60039bc	-1.9107092e-06
97	0x37e3b250	2.7143542e-05
98	0xb726365a	-9.907026e-06
99	0xb7274ccb	-9.971855e-06
100	0x37169755	8.975931e-06
101	0x382695e8	3.9717095e-05
102	0x3798bc09	1.8207373e-05
103	0x3777e79c	1.4776273e-05
104	0xb5c0774d	-1.4339836e-06
105	0x366a569c	3.491913e-06
106	0x37307cbc	1.05194595e-05
107	0xb839d9f2	-4.4310415e-05
108	0x3804bfdd	3.164994e-05
109	0x3794015b	1.7643606e-05
110	0x3757c388	1.2860524e-05
111	0xb6de8fa4	-6.6328375e-06
112	0xb820b2d4	-3.831352e-05
113	0x36d4b242	6.3388443e-06
114	0xb7f3b837	-2.9053639e-05
115	0xb85180f1	-4.994957e-05
116	0x360e10c8	2.1169417e-06
117	0xb85f9bbe	-5.331239e-05
118	0xb6d5e435	-6.3744615e-06
119	0xb6ec8899	-7.04925e-06
120	0x3826fe02	3.9814047e-05
121	0xb7a12f07	-1.9214594e-05
122	0xb6d283ea	-6.2738445e-06
123	0xb84e195a	-4.9137838e-05
124	0xb83d01d3	-4.506281e-05
125	0xb61a8a9f	-2.3028476e-06
126	0xb803c140	-3.1412812e-05
127	0xb614e64d	-2.2187771e-06
128	0xb87e7f05	-6.0676615e-05
129	0xb8407ca7	-4.589246e-05
130	0x381bb899	3.71268e-05
131	0xb78ed46a	-1.7026632e-05
132	0xb7a2e93f	-1.9420519e-05
133	0x36ebfc5f	7.0329256e-06
134	0xb7894d81	-1.6367763e-05
135	0x37fc78e3	3.0097033e-05
136	0x376b659e	1.4030751e-05
137	0x372dc621	1.0357734e-05
138	0xb85d86bf	-5.2815998e-05
139	0x368ae8dc	4.139829e-06
140	0xb7eac04d	-2.798452e-05
141	0xb7c03db6	-2.291692e-05
142	0xb799e77c	-1.8346815e-05
143	0xb76e886e	-1.42176705e-05
144	0x37182cb3	9.070313e-06
145	0xb7d271dc	-2.508697e-05
146	0xb88c9dfb	-6.7051464e-05
147	0x360bf5be	2.0855655e-06
148	0x37e00bcb	2.6708372e-05
149	0xb8083509	-3.247432e-05
150	0xb7f28371	-2.8909855e-05
151	0xb877c2da	-5.907086e-05
152	0xb5c461fe	-1.4631657e-06
153	0xb7a76423	-1.9954581e-05
154	0xb73bae1e	-1.1186608e-05
155	0x36d71f41	6.4111377e-06
156	0xb8015df6	-3.0843505e-05
157	0x3767d917	1.3819218e-05
158	0xb7bfa57b	-2.2846032e-05
159	0xb6689060	-3.4654731e-06
160	0xb761f365	-1.3467715e-05
161	0xb765cc99	-1.36971e-05
162	0xb8876fb6	-6.4581094e-05
163	0xb49e3520	-2.9468447e-07
164	0xb8a3faef	-7.819186e-05
165	0xb7ebc126	-2.8104125e-05
166	0xb7c18547	-2.3069455e-05
167	0x3899d25c	7.334791e-05
168	0x37709105	1.433888e-05
169	0xb6a7f4e9	-5.005499e-06
170	0x377b731d	1.4987568e-05
171	0xb8407121	-4.5881727e-05
172	0x368433f0	3.939953e-06
173	0x37caea34	2.4189336e-05
174	0xb7e6053c	-2.7420574e-05
175	0xb8631968	-5.414468e-05
176	0xb81a28c3	-3.6754423e-05
177	0xb8620538	-5.388746e-05
178	0xb6896678	-4.094847e-06
179	0x348acc2c	2.5853058e-07
180	0x36d41e52	6.321622e-06
181	0xb7a5cfbd	-1.9766268e-05
182	0xb64ef1c4	-3.0837118e-06
183	0xb78bfa55	-1.6686661e-05
184	0xb7c4e39d	-2.3471011e-05
185	0xb81c57ef	-3.7275193e-05
186	0xb7b8c354	-2.2025466e-05
187	0xb7dfeace	-2.6693011e-05
188	0xb7011daf	-7.69591e-06
189	0x36ddbc32	6.608222e-06
190	0xb79fcaf4	-1.9048784e-05
191	0x381ac51a	3.6900026e-05
192	0x3820ec24	3.8366896e-05
193	0x378ece79	1.7023865e-05
194	0xb884cb97	-6.332172e-05
195	0xb8773648	-5.8939942e-05
196	0xb72b90ed	-1.0226137e-05
197	0xb7c91954	-2.3972862e-05
198	0xb8240ca7	-3.911243e-05
199	0x375502a8	1.2696408e-05
200	0xb869ea2e	-5.5769626e-05
201	0xb7bc2ba9	-2.2431677e-05
202	0xb7b9d69c	-2.2153654e-05
203	0xb74dde4b	-1.2270709e-05
204	0xb82375af	-3.897183e-05
205	0xb8668a5b	-5.4965127e-05
206	0x37c3db47	2.334792e-05
207	0xb846c7d9	-4.7393e-05
208	0x378a3c68	1.647901e-05
209	0x379d6f1c	1.8767598e-05
210	0xb6859ebc	-3.982188e-06
211	0xb7beeafd	-2.275919e-05
212	0xb7e58c94	-2.736439e-05
213	0x3788237a	1.6228983e-05
214	0x37c3391e	2.3272409e-05
215	0xb7dfcdda	-2.6679529e-05
216	0xb76f5cb6	-1.4267096e-05
217	0xb70ca0d2	-8.382094e-06
218	0x372f8d83	1.0463761e-05
219	0xb7994c10	-1.827444e-05
220	0x37d23bda	2.5061821e-05
221	0x37975135	1.8038418e-05
222	0xb872a916	-5.785477e-05
223	0xb8465307	-4.7284204e-05
224	0x363bb85d	2.7972485e-06
225	0xb6fc587b	-7.5204857e-06
226	0xb77c704f	-1.5046519e-05
227	0xb7e3e8e4	-2.7168957e-05
228	0xb7ffda5a	-3.0500047e-05
229	0x37797e87	1.4871016e-05
230	0x373a4db8	1.1104559e-05
231	0xb7c73948	-2.3749322e-05
232	0x38189866	3.6381556e-05
233	0xb861ceec	-5.383689e-05
234	0xb73d6a1e	-1.1289985e-05
235	0xb866a586	-5.499043e-05
236	0x37701122	1.4309104e-05
237	0x3646631b	2.9561986e-06
238	0xb81e70a1	-3.777503e-05
239	0xb6e042db	-6.683503e-06
240	0x37bd5121	2.2568334e-05
241	0xb8852f3e	-6.350734e-05
242	0xb7325d12	-1.0631296e-05
243	0xb757b516	-1.2857161e-05
244	0x3777da47	1.4773169e-05
245	0xb7748aa4	-1.4575813e-05
246	0xb859a6fe	-5.1892355e-05
247	0x37d84aad	2.578398e-05
248	0x369b03b1	4.6197897e-06
249	0xb8a8127f	-8.0143094e-05
250	0xb7e49483	-2.7248874e-05
251	0xb752075f	-1.2518692e-05
252	0xb86444ca	-5.44235e-05
253	0xb792a92c	-1.7483333e-05
254	0xb7baa144	-2.2248023e-05
255	0x381510fa	3.554018e-05

conv4.bias f4 [128]
0	0x3c165a70	0.009176835
1	0xb8796fa9	-5.9470218e-05
2	0xb7c1e669	-2.3114686e-05
3	0x3ba93a38	0.005164411
4	0xb7927966	-1.7461087e-05
5	0xb7e01c12	-2.6715952e-05
6	0x3c934bf2	0.01798055
7	0xb831ec29	-4.242003e-05
8	0x3a31583f	0.0006765164
9	0x3b7f73c8	0.0038978923
10	0xb7d159ee	-2.4956618e-05
11	0xba6383ce	-0.0008679003
12	0xb75cb5d1	-1.3155354e-05
13	0xb7a4d582	-1.9649746e-05
14	0x3b8f0812	0.0043649757
15	0x3c4fd0d8	0.01268407
16	0xba35cc43	-0.00069350394
17	0x3c677b4b	0.014128516
18	0x3c2c27cb	0.010507534
19	0xb875aecc	-5.8575344e-05
20	0xb7e5cc24	-2.7393988e-05
21	0xb6f6d517	-7.3561782e-06
22	0xb7fe3344	-3.0303032e-05
23	0x3c0201c9	0.007934996
24	0xb88ce80f	-6.7189445e-05
25	0xb79cf927	-1.871267e-05
26	0xb8995333	-7.3111056e-05
27	0x3c5c7a93	0.013456958
28	0xb8fb9863	-0.00011996997
29	0xb7fe0174	-3.0279836e-05
30	0x3ba68bb3	0.0050825714
31	0xb78bc302	-1.6660899e-05
32	0x3aff5312	0.0019479713
33	0x3c828a9a	0.015935231
34	0xb8a75c7d	-7.980408e-05
35	0xb7a76d3c	-1.9958818e-05
36	0x3b5b33c7	0.003344761
37	0xb78a0d3e	-1.6457048e-05
38	0xb7aca197	-2.0579244e-05
39	0x3b287a1f	0.0025707555
40	0xbb00b419	-0.0019638597
41	0x3bc374d0	0.005964853
42	0xb7b7000f	-2.1815327e-05
43	0xb80b1247	-3.3157205e-05
44	0x3b46dccc	0.0030344008
45	0xb7693b2a	-1.3901657e-05
46	0x3c574e98	0.013141297
47	0xb7be2061	-2.2664843e-05
48	0x3c480a27	0.012209452
49	0xbbf7e44a	-0.007565056
50	0xb772dcd5	-1.44757405e-05
51	0x3bb13356	0.005407731
52	0xb883a180	-6.2766485e-05
53	0xbaed06c4	-0.0018083681
54	0x3b3c6454	0.0028746324
55	0xba8f948a	-0.0010954302
56	0xb781dd7b	-1.5481133e-05
57	0xb8067164	-3.2053693e-05
58	0xbbe19c13	-0.0068850606
59	0x3cb421d1	0.021988781
60	0xb7d89a81	-2.5821153e-05
61	0xb7924a73	-1.7439224e-05
62	0xbbf5fec7	-0.0075071785
63	0xb8104b4f	-3.4402412e-05
64	0xb735f79d	-1.0846093e-05
65	0xb8314024	-4.2259824e-05
66	0x3c5d0e97	0.013492248
67	0xb780c958	-1.5352547e-05
68	0xb7e9243e	-2.7792641e-05
69	0xbc4007fe	-0.0117206555
70	0xb793249c	-1.7540813e-05
71	0x3aaefb97	0.0013350126
72	0xb7b27e15	-2.1277965e-05
73	0xb84dd102	-4.9070462e-05
74	0xbaa78d71	-0.0012783242
75	0xbae98b3c	-0.0017817984
76	0xb786b63d	-1.6058906e-05
77	0xbb3ec04f	-0.0029106324
78	0xb75a4fa6	-1.3012357e-05
79	0xb6bb6188	-5.5843884e-06
80	0xb78d88a9	-1.6872147e-05
81	0xb7a88afc	-2.009188e-05
82	0xb791e240	-1.7390703e-05
83	0x3b0c3099	0.002139127
84	0xb778c947	-1.4828815e-05
85	0xb72517a2	-9.840269e-06
86	0xb7846414	-1.5782229e-05
87	0xbc46bbde	-0.012129752
88	0xbab72b46	-0.0013974688
89	0xb7a85739	-2.0067777e-05
90	0xb77585b7	-1.4634271e-05
91	0x3c5240ee	0.012832863
92	0xb7ca692e	-2.4129255e-05
93	0xbc464db8	-0.0121034905
94	0xbbe4c8f2	-0.0069819624
95	0x3c0cd626	0.008595979
96	0xb80d2657	-3.3652726e-05
97	0xb7cd6908	-2.4486813e-05
98	0xb74bd4f3	-1.2149324e-05
99	0xb71946d4	-9.136002e-06
100	0xb7c19f0e	-2.3081458e-05
101	0xbb1313aa	-0.002244214
102	0xb7733d91	-1.4498263e-05
103	0xb73c2dfc	-1.121638e-05
104	0xb757a50d	-1.28534275e-05
105	0xb9b2c64c	-0.00034098548
106	0x3d852024	0.06500271
107	0xb7d70f99	-2.563726e-05
108	0xb70924d6	-8.174413e-06
109	0x3c88a47e	0.016679998
110	0xb7df23a5	-2.660027e-05
111	0x3ca6ea43	0.020375377
112	0xb8869e3a	-6.41909e-05
113	0x3af16172	0.0018415882
114	0xbbe220b9	-0.0069008735
115	0xb771e4ca	-1.44179885e-05
116	0xb75924c8	-1.2942772e-05
117	0x3c52b2fa	0.012860054
118	0x3c09b9ec	0.008406144
119	0xb85e02d5	-5.2931562e-05
120	0xb7943b51	-1.7670596e-05
121	0xba965125	-0.0011468275
122	0xb7a4e1ce	-1.9655472e-05
123	0xb7dc28d4	-2.6245056e-05
124	0x3b202727	0.00244374
125	0xbc7ba2e9	-0.015358665
126	0xba5ce2ea	-0.0008426147
127	0xb73e66d2	-1.1348822e-05

conv4.lin.weight f4 [128, 128]
0	0xbee31846	-0.44354457
1	0x3d2386aa	0.039923348
2	0xbce2b707	-0.027675165
3	0x3b4c652e	0.0031188237
4	0x3d926716	0.07148568
5	0xbec65bfd	-0.38742056
6	0x3e032b1f	0.12809418
7	0x3d0ef9ff	0.034906384
8	0x3c8f6673	0.017504906
9	0xbdb7b285	-0.08969597
10	0x3ca64b34	0.020299532
11	0x3ce261c6	0.027634513
12	0xbb230d11	-0.0024879614
13	0xbce8a2a9	-0.028397875
14	0x3b6f780d	0.0036540062
15	0xbdbb7cab	-0.09154638
16	0x3d9b4f89	0.075835295
17	0x3cc9aa10	0.024617225
18	0xbccfe9ab	-0.025379976
19	0x3c90a547	0.017656935
20	0x3ca8278d	0.020526672
21	0x3ceb74a8	0.02874215
22	0xbdc33c1e	-0.09532951
23	0x3e24497a	0.16043654
24	0x3c49b155	0.012310346
25	0xbf1f750e	-0.62287986
26	0xbc3f4fbb	-0.011676724
27	0xbb5c34fa	-0.0033600912
28	0xbdcde7d5	-0.10053984
29	0x3dc02880	0.09382725
30	0x3b6992fc	0.0035640588
31	0x3dad8aaa	0.08473714
32	0x3d2e8857	0.042610493
33	0xbcf7ff68	-0.030273154
34	0xbdbefab1	-0.09325159
35	0x3c87b841	0.016567351
36	0x3cf1495d	0.029453928
37	0x3d0cc7e4	0.034370318
38	0xbcdb3fbc	-0.02676379
39	0xbc2d1042	-0.010562958
40	0xbcf754f6	-0.03019188
41	0x3d382737	0.044959273
42	0x3d1ec916	0.03876599
43	0x3dd67df9	0.10473246
44	0xbb379158	-0.0028010216
45	0x3d0b716c	0.034043714
46	0x3cd6f26d	0.026238644
47	0x3d3b38f6	0.04570862
48	0xbc931f41	-0.017959239
49	0x3db0e0c8	0.086366236
50	0x3d21e9dd	0.03952967
51	0xbd3221b6	-0.04348918
52	0x3bec58ff	0.0072127576
53	0x3ccacdf3	0.024756407
54	0xbd1832c3	-0.037157785
55	0xbddba0f0	-0.10724056
56	0xbd2378d5	-0.039910156
57	0x3d8ba467	0.06818467
58	0x3d54d8d9	0.051964615
59	0x3dfb58f9	0.122728296
60	0xbd7b8643	-0.06140734
61	0x3d80f7cd	0.06297264
62	0x3dc24a60	0.09486842
63	0xbd9ac803	-0.075576805
64	0xbf3ceb44	-0.73796487
65	0x3c4233b9	0.011853152
66	0xbf082195	-0.5317624
67	0xbb19beb0	-0.0023459606
68	0x3df74c17	0.1207506
69	0x3d1dbdcb	0.03851108
70	0x3d4811af	0.04884499
71	0xbe1b262a	-0.15151277
72	0x3d60185e	0.05471074
73	0x3dbe12c5	0.09280924
74	0xbbeeef66	-0.007291722
75	0x3d378ee9	0.044814024
76	0x3d330ea2	0.043715127
77	0xbad1d0cf	-0.0016007664
78	0xbd9d8a82	-0.07692434
79	0x3e0c9f66	0.1373268
80	0xbca3257d	-0.019915337
81	0x3c90a8d3	0.017658627
82	0xbbd343af	-0.0064472775
83	0x3d4f4bf9	0.050609563
84	0xbd89e086	-0.067322776
85	0x3c543e73	0.012954342
86	0x3d60f861	0.054924373
87	0x3d8b56e6	0.06803684
88	0x3c8c7aad	0.01714834
89	0x3ca1808b	0.019714614
90	0x3d8a1e1e	0.06744026
91	0x3e0aff63	0.13573985
92	0x3c80e4ab	0.015734037
93	0xbd2fc6f9	-0.042914364
94	0x3cb59236	0.022164445
95	0xbdccbc70	-0.09996879
96	0xbea48aa8	-0.32137036
97	0x3d9ecb88	0.07753664
98	0x3db8c71e	0.090223536
99	0x3d2eb8d1	0.042656723
100	0xbcc35f27	-0.023849083
101	0xbe752e6b	-0.23943488
102	0x3d0f8187	0.035035636
103	0x3c96d2ae	0.018411007
104	0xbcfcc345	-0.03085483
105	0xbd9aeede	-0.075650916
106	0x3d8aed34	0.06783524
107	0xbf1530ca	-0.5827757
108	0x3d87589f	0.066087
109	0xbe95cb41	-0.29256633
110	0x3cd6708e	0.026176717
111	0x3caee7d8	0.021350786
112	0xbbb375cc	-0.005476689
113	0xbcebb697	-0.028773589
114	0x3ccafc46	0.024778496
115	0x3abf5494	0.001459735
116	0xbd93b306	-0.072118804
117	0x3d43b423	0.047779214
118	0x3d68e9fb	0.056863766
119	0x3d824a96	0.063618824
120	0x3d062e38	0.03275892
121	0xbd86ac3e	-0.06575821
122	0xbd65f6dc	-0.056143627
123	0xbda4e6cb	-0.08051833
124	0x3cca6f70	0.02471134
125	0x3e1000a3	0.14062743
126	0x3d0206e0	0.031744838
127	0x3d88a0c0	0.06671286
128	0xb92db5ac	-0.00016566244
129	0xb845ea21	-4.718651e-05
130	0x388299aa	6.227505e-05
131	0x382e6820	4.1581807e-05
132	0xb82bab31	-4.092901e-05
133	0xb775cb9c	-1.46505445e-05
134	0x3858a887	5.1655366e-05
135	0xb8b5a119	-8.660759e-05
136	0xb90cf1e7	-0.00013441556
137	0xb7b2f19f	-2.1331767e-05
138	0x385f00c5	5.316806e-05
139	0xb8c232c7	-9.260099e-05
140	0x376d508a	1.4145053e-05
141	0xb8ad84a6	-8.2739905e-05
142	0xb8f918be	-0.00011877854
143	0xb8db6968	-0.00010462367
144	0xb8e1623e	-0.00010747135
145	0x3677827e	3.6881825e-06
146	0x3876cfa5	5.8844354e-05
147	0x37b40bd6	2.1463184e-05
148	0xb810117f	-3.434857e-05
149	0x381e790d	3.7782873e-05
150	0x37dcde18	2.6329464e-05
151	0xb80a1b6e	-3.292731e-05
152	0xb62550d6	-2.4633969e-06
153	0xb911cc4d	-0.00013904386
154	0x3880b034	6.136336e-05
155	0xb9414463	-0.0001843139
156	0xb8d5f790	-0.000102027436
157	0xb8c92981	-9.5921576e-05
158	0x388cd55b	6.715461e-05
159	0xb6caf2fc	-6.048356e-06
160	0xb8e94ad2	-0.00011124242
161	0xb84bae28	-4.8561167e-05
162	0xb8404d88	-4.5848574e-05
163	0xb90f6e8e	-0.00013678728
164	0x38b1a828	8.471339e-05
165	0x3815ddfd	3.573111e-05
166	0x38746a39	5.827306e-05
167	0x37c7e985	2.383139e-05
168	0xb903d918	-0.00012574007
169	0xb887536e	-6.4528416e-05
170	0xb8aeaaf0	-8.328806e-05
171	0xb8afae49	-8.3771134e-05
172	0xb7c11b23	-2.302003e-05
173	0xb935e35d	-0.00017346205
174	0xb7e4bc4b	-2.7267399e-05
175	0xb8e6700e	-0.000109881265
176	0x38887ced	6.5082546e-05
177	0xb949bf7f	-0.00019240192
178	0x37df7a77	2.6640699e-05
179	0x38349747	4.3056232e-05
180	0xb9144c8e	-0.00014142899
181	0x37474977	1.1878429e-05
182	0xb90a88d2	-0.00013211675
183	0x3860491b	5.3473846e-05
184	0xb8cc3733	-9.73776e-05
185	0xb8a70f17	-7.965991e-05
186	0x376e6750	1.420996e-05
187	0x37cbf086	2.4311488e-05
188	0xb8920ff4	-6.964794e-05
189	0xb80a0716	-3.2908363e-05
190	0xb8331c97	-4.2703552e-05
191	0xb8aef8aa	-8.343284e-05
192	0xb804b49d	-3.163946e-05
193	0xb7ccf9f6	-2.4435092e-05
194	0xb891b684	-6.948135e-05
195	0xb8c630e9	-9.450486e-05
196	0x37b07c5e	2.1038748e-05
197	0xb921548d	-0.00015385654
198	0xb91693a5	-0.00014360117
199	0xb88d83bd	-6.747942e-05
200	0xb91bd28f	-0.00014860391
201	0x383c8376	4.4945125e-05
202	0xb85d0e57	-5.270386e-05
203	0xb80f2768	-3.4130557e-05
204	0x38ff72ee	0.00012180755
205	0xb892aac6	-6.9936315e-05
206	0xb913ec8e	-0.00014107136
207	0x37ac4efb	2.0540776e-05
208	0xb8531d07	-5.0333354e-05
209	0xb7b71171	-2.1823422e-05
210	0xb92869b2	-0.00016061103
211	0xb9015a30	-0.00012335996
212	0x37ec8943	2.819731e-05
213	0xb8ed2baf	-0.00011309177
214	0xb839cebe	-4.429998e-05
215	0xb792e71c	-1.7512175e-05
216	0xb8780ec5	-5.9141563e-05
217	0x379dcae1	1.8810331e-05
218	0xb8c985fb	-9.609383e-05
219	0xb8363bd5	-4.3447904e-05
220	0xb9013d60	-0.00012325263
221	0xb908f88b	-0.0001306256
222	0xb920d2f9	-0.00015337383
223	0xb8deb1b5	-0.000106188854
224	0xb80bbbba	-3.3315016e-05
225	0xb762bd55	-1.3514732e-05
226	0xb8dbe29e	-0.000104849445
227	0xb8e11a44	-0.000107337284
228	0x384e2baf	4.915491e-05
229	0xb8ae4bbf	-8.311075e-05
230	0xb8b6ffa3	-8.726052e-05
231	0xb4898b92	-2.561979e-07
232	0x3824e405	3.9313007e-05
233	0xb7b5a03d	-2.1651498e-05
234	0xb89cc768	-7.475802e-05
235	0xb8a3a3e4	-7.802973e-05
236	0xb846dee1	-4.741445e-05
237	0xb85e4f54	-5.3002805e-05
238	0x3822265d	3.865954e-05
239	0xb85853fe	-5.1576637e-05
240	0xb88bf918	-6.674434e-05
241	0xb8e734fc	-0.000110248075
242	0xb854fd30	-5.0780538e-05
243	0x381a009f	3.671704e-05
244	0xb90b7635	-0.00013300109
245	0xb8a9aa9f	-8.0903286e-05
246	0xb83cb77a	-4.499357e-05
247	0xb86eee56	-5.696559e-05
248	0xb8324c5e	-4.250963e-05
249	0xb852ad42	-5.022926e-05
250	0xb8c0e86a	-9.198564e-05
251	0xb8e3e96d	-0.000108676824
252	0xb8a0d675	-7.66934e-05
253	0x377a1e3c	1.4908201e-05
254	0xb6f0d4bd	-7.1773234e-06
255	0xb8ffecbe	-0.00012203444

pos_mlp.0.weight f4 [128, 128]
0	0xbd6c7013	-0.05772407
1	0xb9a9c9a2	-0.0003238442
2	0x3c85fd9f	0.016356288
3	0xbc94779d	-0.018123442
4	0xbe373853	-0.1789258
5	0xbd489de7	-0.048978712
6	0xbc7c9ec1	-0.015418709
7	0xbb0fa63a	-0.0021919147
8	0x3c0c6a44	0.008570258
9	0xbdc02448	-0.0938192
10	0x3d3a9a15	0.0455571
11	0x3e4f581c	0.20248455
12	0x3c680396	0.014161011
13	0xbd1bf1dc	-0.038072452
14	0xbd9278b0	-0.071519256
15	0x3ce32f7f	0.027732609
16	0xbd89b74b	-0.067244135
17	0x3bcbc533	0.0062185763
18	0xbd15bd38	-0.036557406
19	0xbceccc7a	-0.028906096
20	0xbcbc281a	-0.02296834
21	0xbd8649d7	-0.065570526
22	0x3c895b57	0.016767187
23	0xbdce647b	-0.10077759
24	0x3d071a9f	0.032984372
25	0xbce05995	-0.027386466
26	0x3cd40ccc	0.025885008
27	0x3d6cdea8	0.05782953
28	0x3cd13ce2	0.025541726
29	0x3d0308bf	0.031990763
30	0xbde77f95	-0.11303631
31	0x3e60bc31	0.2194679
32	0xbd28c12e	-0.041199856
33	0x3c703788	0.014661677
34	0xbd3bc7ca	-0.04584483
35	0x3b3ab186	0.002848716
36	0xbd948860	-0.07252574
37	0x3b4162b8	0.0029508304
38	0xbc91684a	-0.017749924
39	0x3e4f6939	0.20254983
40	0xbde9bdf1	-0.114131816
41	0xbde59922	-0.112108484
42	0xbc5540f8	-0.013015978
43	0xbd1ad8da	-0.037804462
44	0x3e04d8f6	0.12973389
45	0x3bfec2ac	0.0077746715
46	0xbd86c8a5	-0.06581239
47	0xbd047d89	-0.032346282
48	0xbd3bf157	-0.045884456
49	0x3c01080b	0.007875453
50	0xbb45b44f	-0.0030167287
51	0x3e44fe6b	0.19237678
52	0xbce46d0d	-0.02788403
53	0xbc7ccf8c	-0.015430342
54	0x3b9f6321	0.004864112
55	0xbcb38ae0	-0.021916807
56	0xbcb9b316	-0.022668403
57	0xbc3ee1f1	-0.011650548
58	0xbe21d82a	-0.15805116
59	0xbc9a7891	-0.018856319
60	0xbc0403d6	-0.008057555
61	0xbd5fdaea	-0.054652132
62	0x3d10269b	0.035193067
63	0x3d57d909	0.052697215
64	0x3aa67865	0.0012700675
65	0x3d1867b7	0.037208285
66	0x3c09d604	0.008412842
67	0xbd61b2db	-0.05510221
68	0x3cc828e0	0.024433553
69	0xb9ce584e	-0.00039357174
70	0x3cb4bba2	0.022062127
71	0x3c20fc57	0.0098257875
72	0xbdc0fc68	-0.09423143
73	0xbddfc0c3	-0.10925438
74	0xbdf5069b	-0.119641505
75	0xbc1cce30	-0.009570643
76	0xbdaa3728	-0.083113015
77	0xbc7e152a	-0.015507976
78	0xbd008fe5	-0.03138723
79	0x3b8ff5f0	0.0043933317
80	0x3cad871b	0.021182587
81	0xbdb7481e	-0.08949302
82	0xbc77363a	-0.015088612
83	0x3cb07e92	0.021544728
84	0xbda43ac4	-0.08019021
85	0xb9aef85d	-0.0003337291
86	0xbdb78a41	-0.08961917
87	0xbd33c091	-0.043884818
88	0x3d2b2ab6	0.04178878
89	0xbd7f7feb	-0.06237785
90	0xbca7dd1b	-0.020491173
91	0x3bb7f629	0.0056140614
92	0xbda6ef87	-0.08151155
93	0xbd9e30ce	-0.077241525
94	0x3d6ae458	0.05734667
95	0xbd2612ec	-0.04054539
96	0xbdce76fa	-0.10081287
97	0x3cd53955	0.026028315
98	0xbd889f15	-0.066709675
99	0xbda0825c	-0.07837364
100	0x3d366ff3	0.044540357
101	0xbd1c48b0	-0.038155258
102	0x3d248def	0.04017442
103	0xbc377071	-0.011196242
104	0xbce7cb38	-0.028295144
105	0xbd63d425	-0.05562224
106	0x3d2655c3	0.040609132
107	0x3c1fc56c	0.009751659
108	0xbd3d1842	-0.046165712
109	0xbdc4e3e4	-0.09613779
110	0xba74b3a7	-0.00093346316
111	0xbd041fbb	-0.032256823
112	0x3d05ae7c	0.032637104
113	0xbdafc677	-0.08582776
114	0xbd706d3c	-0.058697924
115	0xbc54703d	-0.012966213
116	0x3d806af9	0.062704034
117	0xbcfbabc0	-0.030721545
118	0xbd29c014	-0.041442946
119	0xbb655f25	-0.0034999338
120	0xbdc54992	-0.09633173
121	0xbd50359b	-0.050832372
122	0xbd37ec7d	-0.044903267
123	0x3c880215	0.016602555
124	0xbccddafc	-0.025128834
125	0xbc9adc27	-0.018903805
126	0xb8bc5444	-8.980234e-05
127	0xbd8e9fc4	-0.069640666
128	0xbc126c78	-0.008936994
129	0xbc3e13f9	-0.011601442
130	0xbb7a360e	-0.0038179192
131	0x3d5fc5be	0.05463194
132	0x3d929e48	0.07159096
133	0xbd6bfbd8	-0.057613224
134	0xbba14f27	-0.004922766
135	0x3a8db039	0.0010809965
136	0xba9f98e3	-0.0012176301
137	0xbdbfbbf5	-0.09362022
138	0x3e080490	0.1328299
139	0xbc774472	-0.015092002
140	0x3c44709d	0.01198974
141	0x3d532f46	0.051558755
142	0xbe00f0de	-0.12591884
143	0x3d8f2982	0.06990339
144	0xbdbd9981	-0.09257794
145	0xbcbc6db0	-0.023001522
146	0xbb77657a	-0.0037749694
147	0xbdc75462	-0.097328916
148	0x3c99021a	0.01867776
149	0xbd66959b	-0.05629502
150	0xbd7e917e	-0.06215047
151	0xbd950014	-0.072754055
152	0xbd11535d	-0.035479892
153	0x3d2b62d4	0.041842297
154	0xbada7794	-0.0016667717
155	0x3c9b00d0	0.018921286
156	0x3c468a1f	0.012117892
157	0x3ca9794a	0.020687718
158	0x3ea70257	0.32618973
159	0xbe8400a7	-0.25781748
160	0xbd99cc24	-0.0750964
161	0xbdb33b8f	-0.08751594
162	0xbc3340d6	-0.010940751
163	0x3cbbc5dd	0.022921497
164	0x3ccf99cb	0.025341889
165	0x3d0c1c10	0.03420645
166	0xbd7ca1d1	-0.061677758
167	0xbda3dc68	-0.080010235
168	0xbe039968	-0.12851489
169	0xbce4f232	-0.027947519
170	0x3c91bd0e	0.017790344
171	0xbd1371b4	-0.035997108
172	0xbaad93c9	-0.0013242896
173	0xbcbef6f2	-0.023311112
174	0xbd933cce	-0.07189332
175	0xbd2b7bc3	-0.041866075
176	0xbe05d2e4	-0.1306873
177	0xbd240608	-0.040044814
178	0x3c8abd73	0.01693604
179	0xbd5690ed	-0.052384306
180	0xbba3ed91	-0.0050026854
181	0xbcebe0f8	-0.028793797
182	0xbdac04b0	-0.083993316
183	0xbd3f281c	-0.04666911
184	0x3c94a677	0.018145783
185	0xbc253f90	-0.010085955
186	0x3e42f523	0.19038825
187	0xbd074bde	-0.033031337
188	0xbc734e9e	-0.014850287
189	0xbc1ac561	-0.009446473
190	0x3d14eb71	0.036357347
191	0xbbf3cc6d	-0.007440141
192	0xbc7014d0	-0.0146534
193	0xbc12893e	-0.008943854
194	0xbbbb4855	-0.0057154098
195	0xbd841b36	-0.064505026
196	0xbc75bf2c	-0.014999192
197	0xbce21a5d	-0.027600462
198	0x3d59c1e2	0.053163417
199	0x3cb190ad	0.021675432
200	0xbdac541c	-0.0841448
201	0xbd53fcb9	-0.051754687
202	0xbdeb84a0	-0.114999056
203	0xbc7bbef7	-0.015365354
204	0x3ca7ac8f	0.020468025
205	0xbca3e9ee	-0.020009007
206	0x3ba13e9f	0.004920795
207	0xbcf5ff49	-0.030028956
208	0x3ca70328	0.020387247
209	0x3d0084be	0.031376593
210	0x3c9983a3	0.018739527
211	0x3e809115	0.2511069
212	0x3d57cf8b	0.052688163
213	0xbce3cc4a	-0.027807374
214	0xbaabb2ea	-0.0013099585
215	0xbdfc42bd	-0.12317417
216	0x3cb72de4	0.02236075
217	0x3bc25795	0.0059308507
218	0xbc05bce6	-0.008162713
219	0xbcdea081	-0.027176144
220	0xbd9f9af2	-0.07793225
221	0xbc24ba42	-0.010054173
222	0x3c75d20b	0.015003691
223	0xbd78075e	-0.0605539
224	0xbce93c5e	-0.028471168
225	0x3b80b5a4	0.0039279032
226	0xbe07bfeb	-0.13256805
227	0xbde5da91	-0.11223329
228	0xbb68df12	-0.003553335
229	0xbc16c1ce	-0.00920148
230	0x3cfb647f	0.030687569
231	0xbdb2f4dd	-0.0873811
232	0xbd72190d	-0.05910592
233	0xbe3c748e	-0.18403837
234	0xbc3cabc6	-0.011515563
235	0x3b272323	0.002550312
236	0xbcdfc021	-0.027313294
237	0xbcd9e41b	-0.026598027
238	0xbc8ad4ca	-0.016947169
239	0xbda883a0	-0.082282305
240	0xbcfd4582	-0.030916933
241	0xbdbb3a90	-0.09142029
242	0xbdd807ee	-0.105483875
243	0x3bea0403	0.0071415915
244	0x3c723eac	0.01478545
245	0xbd6f4342	-0.05841375
246	0xbd5aeb39	-0.053446982
247	0xbd918502	-0.07105447
248	0xbd615bf6	-0.05501934
249	0xbd3a9fd2	-0.045562573
250	0x3cff17a7	0.031139208
251	0x3cce6026	0.025192332
252	0xbcc9f107	-0.024651064
253	0x3d611139	0.054948065
254	0xbdcc8356	-0.09985988
255	0xbe187651	-0.14888884
